…
    predictions:  fiftyone.core.fields.EmbeddedDocumentField(fiftyone.core.labels.Detections)
    eval_tp:      fiftyone.core.fields.IntField
    eval_fp:      fiftyone.core.fields.IntField
    eval_fn:      fiftyone.core.fields.IntField
2024-03-11 07:29:19,974 - itr_50_norm_None_repeat_8_vanish_bbox_ssd_512 - INFO - dataset.name='itr_50_norm_None_repeat_8_vanish_bbox_ssd_512_coco'
load checkpoint from local path: ../mmdetection/checkpoints/ssd512_coco_20210803_022849-0a47a1ca.pth
2024-03-11 07:29:22,490 - itr_50_norm_None_repeat_8_vanish_bbox_ssd_512 - DEBUG - SingleStageDetector(
  (backbone): SSDVGG(
    (features): Sequential(
      (0): Conv2d(3, 64, kernel_size=(3, 3), stride=(1, 1), padding=(1, 1))
      (1): ReLU(inplace=True)
      (2): Conv2d(64, 64, kernel_size=(3, 3), stride=(1, 1), padding=(1, 1))
      (3): ReLU(inplace=True)
      (4): MaxPool2d(kernel_size=2, stride=2, padding=0, dilation=1, ceil_mode=True)
      (5): Conv2d(64, 128, kernel_size=(3, 3), stride=(1, 1), padding=(1, 1))
      (6): ReLU(inplace=True)
      (7): Conv2d(128, 128, kernel_size=(3, 3), stride=(1, 1), padding=(1, 1))
      (8): ReLU(inplace=True)
      (9): MaxPool2d(kernel_size=2, stride=2, padding=0, dilation=1, ceil_mode=True)
      (10): Conv2d(128, 256, kernel_size=(3, 3), stride=(1, 1), padding=(1, 1))
      (11): ReLU(inplace=True)
      (12): Conv2d(256, 256, kernel_size=(3, 3), stride=(1, 1), padding=(1, 1))
      (13): ReLU(inplace=True)
      (14): Conv2d(256, 256, kernel_size=(3, 3), stride=(1, 1), padding=(1, 1))
      (15): ReLU(inplace=True)
      (16): MaxPool2d(kernel_size=2, stride=2, padding=0, dilation=1, ceil_mode=True)
      (17): Conv2d(256, 512, kernel_size=(3, 3), stride=(1, 1), padding=(1, 1))
      (18): ReLU(inplace=True)
      (19): Conv2d(512, 512, kernel_size=(3, 3), stride=(1, 1), padding=(1, 1))
      (20): ReLU(inplace=True)
      (21): Conv2d(512, 512, kernel_size=(3, 3), stride=(1, 1), padding=(1, 1))
      (22): ReLU(inplace=True)
      (23): MaxPool2d(kernel_size=2, stride=2, padding=0, dilation=1, ceil_mode=True)
      (24): Conv2d(512, 512, kernel_size=(3, 3), stride=(1, 1), padding=(1, 1))
      (25): ReLU(inplace=True)
      (26): Conv2d(512, 512, kernel_size=(3, 3), stride=(1, 1), padding=(1, 1))
      (27): ReLU(inplace=True)
      (28): Conv2d(512, 512, kernel_size=(3, 3), stride=(1, 1), padding=(1, 1))
      (29): ReLU(inplace=True)
      (30): MaxPool2d(kernel_size=3, stride=1, padding=1, dilation=1, ceil_mode=False)
      (31): Conv2d(512, 1024, kernel_size=(3, 3), stride=(1, 1), padding=(6, 6), dilation=(6, 6))
      (32): ReLU(inplace=True)
      (33): Conv2d(1024, 1024, kernel_size=(1, 1), stride=(1, 1))
      (34): ReLU(inplace=True)
    )
  )
  init_cfg={'type': 'Pretrained', 'checkpoint': 'open-mmlab://vgg16_caffe'}
  (neck): SSDNeck(
    (l2_norm): L2Norm()
    (extra_layers): ModuleList(
      (0): Sequential(
        (0): ConvModule(
          (conv): Conv2d(1024, 256, kernel_size=(1, 1), stride=(1, 1))
          (activate): ReLU(inplace=True)
        )
        (1): ConvModule(
          (conv): Conv2d(256, 512, kernel_size=(3, 3), stride=(2, 2), padding=(1, 1))
          (activate): ReLU(inplace=True)
        )
      )
      (1): Sequential(
        (0): ConvModule(
          (conv): Conv2d(512, 128, kernel_size=(1, 1), stride=(1, 1))
          (activate): ReLU(inplace=True)
        )
        (1): ConvModule(
          (conv): Conv2d(128, 256, kernel_size=(3, 3), stride=(2, 2), padding=(1, 1))
          (activate): ReLU(inplace=True)
        )
      )
      (2): Sequential(
        (0): ConvModule(
          (conv): Conv2d(256, 128, kernel_size=(1, 1), stride=(1, 1))
          (activate): ReLU(inplace=True)
        )
        (1): ConvModule(
          (conv): Conv2d(128, 256, kernel_size=(3, 3), stride=(2, 2), padding=(1, 1))
          (activate): ReLU(inplace=True)
        )
      )
      (3): Sequential(
        (0): ConvModule(
          (conv): Conv2d(256, 128, kernel_size=(1, 1), stride=(1, 1))
          (activate): ReLU(inplace=True)
        )
        (1): ConvModule(
          (conv): Conv2d(128, 256, kernel_size=(3, 3), stride=(2, 2), padding=(1, 1))
          (activate): ReLU(inplace=True)
        )
      )
      (4): Sequential(
        (0): ConvModule(
          (conv): Conv2d(256, 128, kernel_size=(1, 1), stride=(1, 1))
          (activate): ReLU(inplace=True)
        )
        (1): ConvModule(
          (conv): Conv2d(128, 256, kernel_size=(4, 4), stride=(1, 1), padding=(1, 1))
          (activate): ReLU(inplace=True)
        )
      )
    )
  )
  init_cfg=[{'type': 'Xavier', 'distribution': 'uniform', 'layer': 'Conv2d'}, {'type': 'Constant', 'val': 1, 'layer': 'BatchNorm2d'}, {'type': 'Constant', 'val': 20, 'override': {'name': 'l2_norm'}}]
  (bbox_head): SSDHead(
    (cls_convs): ModuleList(
      (0): Sequential(
        (0): Conv2d(512, 324, kernel_size=(3, 3), stride=(1, 1), padding=(1, 1))
      )
      (1): Sequential(
        (0): Conv2d(1024, 486, kernel_size=(3, 3), stride=(1, 1), padding=(1, 1))
      )
      (2): Sequential(
        (0): Conv2d(512, 486, kernel_size=(3, 3), stride=(1, 1), padding=(1, 1))
      )
      (3): Sequential(
        (0): Conv2d(256, 486, kernel_size=(3, 3), stride=(1, 1), padding=(1, 1))
      )
      (4): Sequential(
        (0): Conv2d(256, 486, kernel_size=(3, 3), stride=(1, 1), padding=(1, 1))
      )
      (5): Sequential(
        (0): Conv2d(256, 324, kernel_size=(3, 3), stride=(1, 1), padding=(1, 1))
      )
      (6): Sequential(
        (0): Conv2d(256, 324, kernel_size=(3, 3), stride=(1, 1), padding=(1, 1))
      )
    )
    (reg_convs): ModuleList(
      (0): Sequential(
        (0): Conv2d(512, 16, kernel_size=(3, 3), stride=(1, 1), padding=(1, 1))
      )
      (1): Sequential(
        (0): Conv2d(1024, 24, kernel_size=(3, 3), stride=(1, 1), padding=(1, 1))
      )
      (2): Sequential(
        (0): Conv2d(512, 24, kernel_size=(3, 3), stride=(1, 1), padding=(1, 1))
      )
      (3): Sequential(
        (0): Conv2d(256, 24, kernel_size=(3, 3), stride=(1, 1), padding=(1, 1))
      )
      (4): Sequential(
        (0): Conv2d(256, 24, kernel_size=(3, 3), stride=(1, 1), padding=(1, 1))
      )
      (5): Sequential(
        (0): Conv2d(256, 16, kernel_size=(3, 3), stride=(1, 1), padding=(1, 1))
      )
      (6): Sequential(
        (0): Conv2d(256, 16, kernel_size=(3, 3), stride=(1, 1), padding=(1, 1))
      )
    )
  )
  init_cfg={'type': 'Xavier', 'layer': 'Conv2d', 'distribution': 'uniform', 'bias': 0}
)
2024-03-11 07:29:22,492 - itr_50_norm_None_repeat_8_vanish_bbox_ssd_512 - INFO - classes=['person', 'bicycle', 'car', 'motorcycle', 'airplane', 'bus', 'train', 'truck', 'boat', 'traffic light', 'fire hydrant', 'stop sign', 'parking m
…
