…
    predictions:  fiftyone.core.fields.EmbeddedDocumentField(fiftyone.core.labels.Detections)
    eval_tp:      fiftyone.core.fields.IntField
    eval_fp:      fiftyone.core.fields.IntField
    eval_fn:      fiftyone.core.fields.IntField
2024-03-12 22:27:46,412 - itr_10_norm_0.05_repeat_11_mislabel_bbox_yolo_v3 - INFO - dataset.name='itr_10_norm_0.05_repeat_11_mislabel_bbox_yolo_v3_coco'
load checkpoint from local path: ../mmdetection/checkpoints/yolov3_d53_mstrain-608_273e_coco_20210518_115020-a2c3acb8.pth
2024-03-12 22:27:50,423 - itr_10_norm_0.05_repeat_11_mislabel_bbox_yolo_v3 - DEBUG - YOLOV3(
  (backbone): Darknet(
    (conv1): ConvModule(
      (conv): Conv2d(3, 32, kernel_size=(3, 3), stride=(1, 1), padding=(1, 1), bias=False)
      (bn): BatchNorm2d(32, eps=1e-05, momentum=0.1, affine=True, track_running_stats=True)
      (activate): LeakyReLU(negative_slope=0.1, inplace=True)
    )
    (conv_res_block1): Sequential(
      (conv): ConvModule(
        (conv): Conv2d(32, 64, kernel_size=(3, 3), stride=(2, 2), padding=(1, 1), bias=False)
        (bn): BatchNorm2d(64, eps=1e-05, momentum=0.1, affine=True, track_running_stats=True)
        (activate): LeakyReLU(negative_slope=0.1, inplace=True)
      )
      (res0): ResBlock(
        (conv1): ConvModule(
          (conv): Conv2d(64, 32, kernel_size=(1, 1), stride=(1, 1), bias=False)
          (bn): BatchNorm2d(32, eps=1e-05, momentum=0.1, affine=True, track_running_stats=True)
          (activate): LeakyReLU(negative_slope=0.1, inplace=True)
        )
        (conv2): ConvModule(
          (conv): Conv2d(32, 64, kernel_size=(3, 3), stride=(1, 1), padding=(1, 1), bias=False)
          (bn): BatchNorm2d(64, eps=1e-05, momentum=0.1, affine=True, track_running_stats=True)
          (activate): LeakyReLU(negative_slope=0.1, inplace=True)
        )
      )
    )
    (conv_res_block2): Sequential(
      (conv): ConvModule(
        (conv): Conv2d(64, 128, kernel_size=(3, 3), stride=(2, 2), padding=(1, 1), bias=False)
        (bn): BatchNorm2d(128, eps=1e-05, momentum=0.1, affine=True, track_running_stats=True)
        (activate): LeakyReLU(negative_slope=0.1, inplace=True)
      )
      (res0): ResBlock(
        (conv1): ConvModule(
          (conv): Conv2d(128, 64, kernel_size=(1, 1), stride=(1, 1), bias=False)
          (bn): BatchNorm2d(64, eps=1e-05, momentum=0.1, affine=True, track_running_stats=True)
          (activate): LeakyReLU(negative_slope=0.1, inplace=True)
        )
        (conv2): ConvModule(
          (conv): Conv2d(64, 128, kernel_size=(3, 3), stride=(1, 1), padding=(1, 1), bias=False)
          (bn): BatchNorm2d(128, eps=1e-05, momentum=0.1, affine=True, track_running_stats=True)
          (activate): LeakyReLU(negative_slope=0.1, inplace=True)
        )
      )
      (res1): ResBlock(
        (conv1): ConvModule(
          (conv): Conv2d(128, 64, kernel_size=(1, 1), stride=(1, 1), bias=False)
          (bn): BatchNorm2d(64, eps=1e-05, momentum=0.1, affine=True, track_running_stats=True)
          (activate): LeakyReLU(negative_slope=0.1, inplace=True)
        )
        (conv2): ConvModule(
          (conv): Conv2d(64, 128, kernel_size=(3, 3), stride=(1, 1), padding=(1, 1), bias=False)
          (bn): BatchNorm2d(128, eps=1e-05, momentum=0.1, affine=True, track_running_stats=True)
          (activate): LeakyReLU(negative_slope=0.1, inplace=True)
        )
      )
    )
    (conv_res_block3): Sequential(
      (conv): ConvModule(
        (conv): Conv2d(128, 256, kernel_size=(3, 3), stride=(2, 2), padding=(1, 1), bias=False)
        (bn): BatchNorm2d(256, eps=1e-05, momentum=0.1, affine=True, track_running_stats=True)
        (activate): LeakyReLU(negative_slope=0.1, inplace=True)
      )
      (res0): ResBlock(
        (conv1): ConvModule(
          (conv): Conv2d(256, 128, kernel_size=(1, 1), stride=(1, 1), bias=False)
          (bn): BatchNorm2d(128, eps=1e-05, momentum=0.1, affine=True, track_running_stats=True)
          (activate): LeakyReLU(negative_slope=0.1, inplace=True)
        )
        (conv2): ConvModule(
          (conv): Conv2d(128, 256, kernel_size=(3, 3), stride=(1, 1), padding=(1, 1), bias=False)
          (bn): BatchNorm2d(256, eps=1e-05, momentum=0.1, affine=True, track_running_stats=True)
          (activate): LeakyReLU(negative_slope=0.1, inplace=True)
        )
      )
      (res1): ResBlock(
        (conv1): ConvModule(
          (conv): Conv2d(256, 128, kernel_size=(1, 1), stride=(1, 1), bias=False)
          (bn): BatchNorm2d(128, eps=1e-05, momentum=0.1, affine=True, track_running_stats=True)
          (activate): LeakyReLU(negative_slope=0.1, inplace=True)
        )
        (conv2): ConvModule(
          (conv): Conv2d(128, 256, kernel_size=(3, 3), stride=(1, 1), padding=(1, 1), bias=False)
          (bn): BatchNorm2d(256, eps=1e-05, momentum=0.1, affine=True, track_running_stats=True)
          (activate): LeakyReLU(negative_slope=0.1, inplace=True)
        )
      )
      (res2): ResBlock(
        (conv1): ConvModule(
          (conv): Conv2d(256, 128, kernel_size=(1, 1), stride=(1, 1), bias=False)
          (bn): BatchNorm2d(128, eps=1e-05, momentum=0.1, affine=True, track_running_stats=True)
          (activate): LeakyReLU(negative_slope=0.1, inplace=True)
        )
        (conv2): ConvModule(
          (conv): Conv2d(128, 256, kernel_size=(3, 3), stride=(1, 1), padding=(1, 1), bias=False)
          (bn): BatchNorm2d(256, eps=1e-05, momentum=0.1, affine=True, track_running_stats=True)
          (activate): LeakyReLU(negative_slope=0.1, inplace=True)
        )
      )
      (res3): ResBlock(
        (conv1): ConvModule(
          (conv): Conv2d(256, 128, kernel_size=(1, 1), stride=(1, 1), bias=False)
          (bn): BatchNorm2d(128, eps=1e-05, momentum=0.1, affine=True, track_running_stats=True)
          (activate): LeakyReLU(negative_slope=0.1, inplace=True)
        )
        (conv2): ConvModule(
          (conv): Conv2d(128, 256, kernel_size=(3, 3), stride=(1, 1), padding=(1, 1), bias=False)
          (bn): BatchNorm2d(256, eps=1e-05, momentum=0.1, affine=True, track_running_stats=True)
          (activate): LeakyReLU(negative_slope=0.1, inplace=True)
        )
      )
      (res4): ResBlock(
        (conv1): ConvModule(
          (conv): Conv2d(256, 128, kernel_size=(1, 1), stride=(1, 1), bias=False)
          (bn): BatchNorm2d(128, eps=1e-05, momentum=0.1, affine=True, track_running_stats=True)
          (activate): LeakyReLU(negative_slope=0.1, inplace=True)
        )
        (conv2): ConvModule(
          (conv): Conv2d(128, 256, kernel_size=(3, 3), stride=(1, 1), padding=(1, 1), bias=False)
          (bn): BatchNorm2d(256, eps=1e-05, momentum=0.1, affine=True, track_running_stats=True)
          (activate): LeakyReLU(negative_slope=0.1, inplace=True)
        )
      )
      (res5): ResBlock(
        (conv1): ConvModule(
          (conv): Conv2d(256, 128, kernel_size=(1, 1), stride=(1, 1), bias=False)
          (bn): BatchNorm2d(128, eps=1e-05, momentum=0.1, affine=True, track_running_stats=True)
          (activate): LeakyReLU(negative_slope=0.1, inplace=True)
        )
        (conv2): ConvModule(
          (conv): Conv2d(128, 256, kernel_size=(3, 3), stride=(1, 1), padding=(1, 1), bias=False)
          (bn): BatchNorm2d(256, eps=1e-05, momentum=0.1, affine=True, track_running_stats=True)
          (activate): LeakyReLU(negative_slope=0.1, inplace=True)
        )
      )
      (res6): ResBlock(
        (conv1): ConvModule(
          (conv): Conv2d(256, 128, kernel_size=(1, 1), stride=(1, 1), bias=False)
          (bn): BatchNorm2d(128, eps=1e-05, momentum=0.1, affine=True, track_running_stats=True)
          (activate): LeakyReLU(negative_slope=0.1, inplace=True)
        )
        (conv2): ConvModule(
          (conv): Conv2d(128, 256, kernel_size=(3, 3), stride=(1, 1), padding=(1, 1), bias=False)
          (bn): BatchNorm2d(256, eps=1e-05, momentum=0.1, affine=True, track_running_stats=True)
          (activate): LeakyReLU(negative_slope=0.1, inplace=True)
        )
      )
      (res7): ResBlock(
        (conv1): ConvModule(
          (conv): Conv2d(256, 128, kernel_size=(1, 1), stride=(1, 1), bias=False)
          (bn): BatchNorm2d(128, eps=1e-05, momentum=0.1, affine=True, track_running_stats=True)
          (activate): LeakyReLU(negative_slope=0.1, inplace=True)
        )
        (conv2): ConvModule(
          (conv): Conv2d(128, 256, kernel_size=(3, 3), stride=(1, 1), padding=(1, 1), bias=False)
          (bn): BatchNorm2d(256, eps=1e-05, momentum=0.1, affine=True, track_running_stats=True)
          (activate): LeakyReLU(negative_slope=0.1, inplace=True)
        )
      )
    )
    (conv_res_block4): Sequential(
      (conv): ConvModule(
        (conv): Conv2d(256, 512, kernel_size=(3, 3), stride=(2, 2), padding=(1, 1), bias=False)
        (bn): BatchNorm2d(512, eps=1e-05, momentum=0.1, affine=True, track_running_stats=True)
        (activate): LeakyReLU(negative_slope=0.1, inplace=True)
      )
      (res0): ResBlock(
        (conv1): ConvModule(
          (conv): Conv2d(512, 256, kernel_size=(1, 1), stride=(1, 1), bias=False)
          (bn): BatchNorm2d(256, eps=1e-05, momentum=0.1, affine=True, track_running_stats=True)
          (activate): LeakyReLU(negative_slope=0.1, inplace=True)
        )
        (conv2): ConvModule(
          (conv): Conv2d(256, 512, kernel_size=(3, 3), stride=(1, 1), padding=(1, 1), bias=False)
          (bn): BatchNorm2d(512, eps=1e-05, momentum=0.1, affine=True, track_running_stats=True)
          (activate): LeakyReLU(negative_slope=0.1, inplace=True)
        )
      )
      (res1): ResBlock(
        (conv1): ConvModule(
          (conv): Conv2d(512, 256, kernel_size=(1, 1), stride=(1, 1), bias=False)
          (bn): BatchNorm2d(256, eps=1e-05, momentum=0.1, affine=True, track_running_stats=True)
          (activate): LeakyReLU(negative_slope=0.1, inplace=True)
        )
        (conv2): ConvModule(
          (conv): Conv2d(256, 512, kernel_size=(3, 3), stride=(1, 1), padding=(1, 1), bias=False)
          (bn): BatchNorm2d(512, eps=1e-05, momentum=0.1, affine=True, track_running_stats=True)
          (activate): LeakyReLU(negative_slope=0.1, inplace=True)
        )
      )
      (res2): ResBlock(
        (conv1): ConvModule(
          (conv): Conv2d(512, 256, kernel_size=(1, 1), stride=(1, 1), bias=False)
          (bn): BatchNorm2d(256, eps=1e-05, momentum=0.1, affine=True, track_running_stats=True)
          (activate): LeakyReLU(negative_slope=0.1, inplace=True)
        )
        (conv2): ConvModule(
          (conv): Conv2d(256, 512, kernel_size=(3, 3), stride=(1, 1), padding=(1, 1), bias=False)
          (bn): BatchNorm2d(512, eps=1e-05, momentum=0.1, affine=True, track_running_stats=True)
          (activate): LeakyReLU(negative_slope=0.1, inplace=True)
        )
      )
      (res3): ResBlock(
        (conv1): ConvModule(
          (conv): Conv2d(512, 256, kernel_size=(1, 1), stride=(1, 1), bias=False)
          (bn): BatchNorm2d(256, eps=1e-05, momentum=0.1, affine=True, track_running_stats=True)
          (activate): LeakyReLU(negative_slope=0.1, inplace=True)
        )
        (conv2): ConvModule(
          (conv): Conv2d(256, 512, kernel_size=(3, 3), stride=(1, 1), padding=(1, 1), bias=False)
          (bn): BatchNorm2d(512, eps=1e-05, momentum=0.1, affine=True, track_running_stats=True)
          (activate): LeakyReLU(negative_slope=0.1, inplace=True)
        )
      )
      (res4): ResBlock(
        (conv1): ConvModule(
          (conv): Conv2d(512, 256, kernel_size=(1, 1), stride=(1, 1), bias=False)
          (bn): BatchNorm2d(256, eps=1e-05, momentum=0.1, affine=True, track_running_stats=True)
          (activate): LeakyReLU(negative_slope=0.1, inplace=True)
        )
        (conv2): ConvModule(
          (conv): Conv2d(256, 512, kernel_size=(3, 3), stride=(1, 1), padding=(1, 1), bias=False)
          (bn): BatchNorm2d(512, eps=1e-05, momentum=0.1, affine=True, track_running_stats=True)
          (activate): LeakyReLU(negative_slope=0.1, inplace=True)
        )
      )
      (res5): ResBlock(
        (conv1): ConvModule(
          (conv): Conv2d(512, 256, kernel_size=(1, 1), stride=(1, 1), bias=False)
          (bn): BatchNorm2d(256, eps=1e-05, momentum=0.1, affine=True, track_running_stats=True)
          (activate): LeakyReLU(negative_slope=0.1, inplace=True)
        )
        (conv2): ConvModule(
          (conv): Conv2d(256, 512, kernel_size=(3, 3), stride=(1, 1), padding=(1, 1), bias=False)
          (bn): BatchNorm2d(512, eps=1e-05, momentum=0.1, affine=True, track_running_stats=True)
          (activate): LeakyReLU(negative_slope=0.1, inplace=True)
        )
      )
      (res6): ResBlock(
        (conv1): ConvModule(
          (conv): Conv2d(512, 256, kernel_size=(1, 1), stride=(1, 1), bias=False)
          (bn): BatchNorm2d(256, eps=1e-05, momentum=0.1, affine=True, track_running_stats=True)
          (activate): LeakyReLU(negative_slope=0.1, inplace=True)
        )
        (conv2): ConvModule(
          (conv): Conv2d(256, 512, kernel_size=(3, 3), stride=(1, 1), padding=(1, 1), bias=False)
          (bn): BatchNorm2d(512, eps=1e-05, momentum=0.1, affine=True, track_running_stats=True)
          (activate): LeakyReLU(negative_slope=0.1, inplace=True)
        )
      )
      (res7): ResBlock(
        (conv1): ConvModule(
          (conv): Conv2d(512, 256, kernel_size=(1, 1), stride=(1, 1), bias=False)
          (bn): BatchNorm2d(256, eps=1e-05, momentum=0.1, affine=True, track_running_stats=True)
          (activate): LeakyReLU(negative_slope=0.1, inplace=True)
        )
        (conv2): ConvModule(
          (conv): Conv2d(256, 512, kernel_size=(3, 3), stride=(1, 1), padding=(1, 1), bias=False)
          (bn): BatchNorm2d(512, eps=1e-05, momentum=0.1, affine=True, track_running_stats=True)
          (activate): LeakyReLU(negative_slope=0.1, inplace=True)
        )
      )
    )
    (conv_res_block5): Sequential(
      (conv): ConvModule(
        (conv): Conv2d(512, 1024, kernel_size=(3, 3), stride=(2, 2), padding=(1, 1), bias=False)
        (bn): BatchNorm2d(1024, eps=1e-05, momentum=0.1, affine=True, track_running_stats=True)
        (activate): LeakyReLU(negative_slope=0.1, inplace=True)
      )
      (res0): ResBlock(
        (conv1): ConvModule(
          (conv): Conv2d(1024, 512, kernel_size=(1, 1), stride=(1, 1), bias=False)
          (bn): BatchNorm2d(512, eps=1e-05, momentum=0.1, affine=True, track_running_stats=True)
          (activate): LeakyReLU(negative_slope=0.1, inplace=True)
        )
        (conv2): ConvModule(
          (conv): Conv2d(512, 1024, kernel_size=(3, 3), stride=(1, 1), padding=(1, 1), bias=False)
          (bn): BatchNorm2d(1024, eps=1e-05, momentum=0.1, affine=True, track_running_stats=True)
          (activate): LeakyReLU(negative_slope=0.1, inplace=True)
        )
      )
      (res1): ResBlock(
        (conv1): ConvModule(
          (conv): Conv2d(1024, 512, kernel_size=(1, 1), stride=(1, 1), bias=False)
          (bn): BatchNorm2d(512, eps=1e-05, momentum=0.1, affine=True, track_running_stats=True)
          (activate): LeakyReLU(negative_slope=0.1, inplace=True)
        )
        (conv2): ConvModule(
          (conv): Conv2d(512, 1024, kernel_size=(3, 3), stride=(1, 1), padding=(1, 1), bias=False)
          (bn): BatchNorm2d(1024, eps=1e-05, momentum=0.1, affine=True, track_running_stats=True)
          (activate): LeakyReLU(negative_slope=0.1, inplace=True)
        )
      )
      (res2): ResBlock(
        (conv1): ConvModule(
          (conv): Conv2d(1024, 512, kernel_size=(1, 1), stride=(1, 1), bias=False)
          (bn): BatchNorm2d(512, eps=1e-05, momentum=0.1, affine=True, track_running_stats=True)
          (activate): LeakyReLU(negative_slope=0.1, inplace=True)
        )
        (conv2): ConvModule(
          (conv): Conv2d(512, 1024, kernel_size=(3, 3), stride=(1, 1), padding=(1, 1), bias=False)
          (bn): BatchNorm2d(1024, eps=1e-05, momentum=0.1, affine=True, track_running_stats=True)
          (activate): LeakyReLU(negative_slope=0.1, inplace=True)
        )
      )
      (res3): ResBlock(
        (conv1): ConvModule(
          (conv): Conv2d(1024, 512, kernel_size=(1, 1), stride=(1, 1), bias=False)
          (bn): BatchNorm2d(512, eps=1e-05, momentum=0.1, affine=True, track_running_stats=True)
          (activate): LeakyReLU(negative_slope=0.1, inplace=True)
        )
        (conv2): ConvModule(
          (conv): Conv2d(512, 1024, kernel_size=(3, 3), stride=(1, 1), padding=(1, 1), bias=False)
          (bn): BatchNorm2d(1024, eps=1e-05, momentum=0.1, affine=True, track_running_stats=True)
          (activate): LeakyReLU(negative_slope=0.1, inplace=True)
        )
      )
    )
  )
  init_cfg={'type': 'Pretrained', 'checkpoint': 'open-mmlab://darknet53'}
  (neck): YOLOV3Neck(
    (detect1): DetectionBlock(
      (conv1): ConvModule(
        (conv): Conv2d(1024, 512, kernel_size=(1, 1), stride=(1, 1), bias=False)
        (bn): BatchNorm2d(512, eps=1e-05, momentum=0.1, affine=True, track_running_stats=True)
        (activate): LeakyReLU(negative_slope=0.1, inplace=True)
      )
      (conv2): ConvModule(
        (conv): Conv2d(512, 1024, kernel_size=(3, 3), stride=(1, 1), padding=(1, 1), bias=False)
        (bn): BatchNorm2d(1024, eps=1e-05, momentum=0.1, affine=True, track_running_stats=True)
        (activate): LeakyReLU(negative_slope=0.1, inplace=True)
      )
      (conv3): ConvModule(
        (conv): Conv2d(1024, 512, kernel_size=(1, 1), stride=(1, 1), bias=False)
        (bn): BatchNorm2d(512, eps=1e-05, momentum=0.1, affine=True, track_running_stats=True)
        (activate): LeakyReLU(negative_slope=0.1, inplace=True)
      )
      (conv4): ConvModule(
        (conv): Conv2d(512, 1024, kernel_size=(3, 3), stride=(1, 1), padding=(1, 1), bias=False)
        (bn): BatchNorm2d(1024, eps=1e-05, momentum=0.1, affine=True, track_running_stats=True)
        (activate): LeakyReLU(negative_slope=0.1, inplace=True)
      )
      (conv5): ConvModule(
        (conv): Conv2d(1024, 512, kernel_size=(1, 1), stride=(1, 1), bias=False)
        (bn): BatchNorm2d(512, eps=1e-05, momentum=0.1, affine=True, track_running_stats=True)
        (activate): LeakyReLU(negative_slope=0.1, inplace=True)
      )
    )
    (conv1): ConvModule(
      (conv): Conv2d(512, 256, kernel_size=(1, 1), stride=(1, 1), bias=False)
      (bn): BatchNorm2d(256, eps=1e-05, momentum=0.1, affine=True, track_running_stats=True)
      (activate): LeakyReLU(negative_slope=0.1, inplace=True)
    )
    (detect2): DetectionBlock(
      (conv1): ConvModule(
        (conv): Conv2d(768, 256, kernel_size=(1, 1), stride=(1, 1), bias=False)
        (bn): BatchNorm2d(256, eps=1e-05, momentum=0.1, affine=True, track_running_stats=True)
        (activate): LeakyReLU(negative_slope=0.1, inplace=True)
      )
      (conv2): ConvModule(
        (conv): Conv2d(256, 512, kernel_size=(3, 3), stride=(1, 1), padding=(1, 1), bias=False)
        (bn): BatchNorm2d(512, eps=1e-05, momentum=0.1, affine=True, track_running_stats=True)
        (activate): LeakyReLU(negative_slope=0.1, inplace=True)
      )
      (conv3): ConvModule(
        (conv): Conv2d(512, 256, kernel_size=(1, 1), stride=(1, 1), bias=False)
        (bn): BatchNorm2d(256, eps=1e-05, momentum=0.1, affine=True, track_running_stats=True)
        (activate): LeakyReLU(negative_slope=0.1, inplace=True)
      )
      (conv4): ConvModule(
        (conv): Conv2d(256, 512, kernel_size=(3, 3), stride=(1, 1), padding=(1, 1), bias=False)
        (bn): BatchNorm2d(512, eps=1e-05, momentum=0.1, affine=True, track_running_stats=True)
        (activate): LeakyReLU(negative_slope=0.1, inplace=True)
      )
      (conv5): ConvModule(
        (conv): Conv2d(512, 256, kernel_size=(1, 1), stride=(1, 1), bias=False)
        (bn): BatchNorm2d(256, eps=1e-05, momentum=0.1, affine=True, track_running_stats=True)
        (activate): LeakyReLU(negative_slope=0.1, inplace=True)
      )
    )
    (conv2): ConvModule(
      (conv): Conv2d(256, 128, kernel_size=(1, 1), stride=(1, 1), bias=False)
      (bn): BatchNorm2d(128, eps=1e-05, momentum=0.1, affine=True, track_running_stats=True)
      (activate): LeakyReLU(negative_slope=0.1, inplace=True)
    )
    (detect3): DetectionBlock(
      (conv1): ConvModule(
        (conv): Conv2d(384, 128, kernel_size=(1, 1), stride=(1, 1), bias=False)
        (bn): BatchNorm2d(128, eps=1e-05, momentum=0.1, affine=True, track_running_stats=True)
        (activate): LeakyReLU(negative_slope=0.1, inplace=True)
      )
      (conv2): ConvModule(
        (conv): Conv2d(128, 256, kernel_size=(3, 3), stride=(1, 1), padding=(1, 1), bias=False)
        (bn): BatchNorm2d(256, eps=1e-05, momentum=0.1, affine=True, track_running_stats=True)
        (activate): LeakyReLU(negative_slope=0.1, inplace=True)
      )
      (conv3): ConvModule(
        (conv): Conv2d(256, 128, kernel_size=(1, 1), stride=(1, 1), bias=False)
        (bn): BatchNorm2d(128, eps=1e-05, momentum=0.1, affine=True, track_running_stats=True)
        (activate): LeakyReLU(negative_slope=0.1, inplace=True)
      )
      (conv4): ConvModule(
        (conv): Conv2d(128, 256, kernel_size=(3, 3), stride=(1, 1), padding=(1, 1), bias=False)
        (bn): BatchNorm2d(256, eps=1e-05, momentum=0.1, affine=True, track_running_stats=True)
        (activate): LeakyReLU(negative_slope=0.1, inplace=True)
      )
      (conv5): ConvModule(
        (conv): Conv2d(256, 128, kernel_size=(1, 1), stride=(1, 1), bias=False)
        (bn): BatchNorm2d(128, eps=1e-05, momentum=0.1, affine=True, track_running_stats=True)
        (activate): LeakyReLU(negative_slope=0.1, inplace=True)
      )
    )
  )
  (bbox_head): YOLOV3Head(
    (loss_cls): CrossEntropyLoss(avg_non_ignore=False)
    (loss_conf): CrossEntropyLoss(avg_non_ignore=False)
    (loss_xy): CrossEntropyLoss(avg_non_ignore=False)
    (loss_wh): MSELoss()
    (convs_bridge): ModuleList(
      (0): ConvModule(
        (conv): Conv2d(512, 1024, kernel_size=(3, 3), stride=(1, 1), padding=(1, 1), bias=False)
        (bn): BatchNorm2d(1024, eps=1e-05, momentum=0.1, affine=True, track_running_stats=True)
        (activate): LeakyReLU(negative_slope=0.1, inplace=True)
      )
      (1): ConvModule(
        (conv): Conv2d(256, 512, kernel_size=(3, 3), stride=(1, 1), padding=(1, 1), bias=False)
        (bn): BatchNorm2d(512, eps=1e-05, momentum=0.1, affine=True, track_running_stats=True)
        (activate): LeakyReLU(negative_slope=0.1, inplace=True)
      )
      (2): ConvModule(
        (conv): Conv2d(128, 256, kernel_size=(3, 3), stride=(1, 1), padding=(1, 1), bias=False)
        (bn): BatchNorm2d(256, eps=1e-05, momentum=0.1, affine=True, track_running_stats=True)
        (activate): LeakyReLU(negative_slope=0.1, inplace=True)
      )
    )
    (convs_pred): ModuleList(
      (0): Conv2d(1024, 255, kernel_size=(1, 1), stride=(1, 1))
      (1): Conv2d(512, 255, kernel_size=(1, 1), stride=(1, 1))
      (2): Conv2d(256, 255, kernel_size=(1, 1), stride=(1, 1))
    )
  )
  init_cfg={'type': 'Normal', 'std': 0.01, 'override': {'name': 'convs_pred'}}
)
2024-03-12 22:27:50,428 - itr_10_norm_0.05_repeat_11_mislabel_bbox_yolo_v3 - INFO - classes=['person', 'bicycle', 'car', 'motorcycle', 'airplane', 'bus', 'train', 'truck', 'boat', 'traffic light', 'fire hydrant', 'stop sign', 'parking meter', 'bench', 'bird', 'cat
…
